Demo code/kdModel.pth (torch, 67351 bytes, 6 tensors)

features.0.weight f4 [20, 784]
00000000: e3cb c7bc 6528 9abc ebf8 093d 9c4d 8b3c
00000010: 5e0a c9bc 9e4a ca3c 6364 04bd 6ac1 0dbd
00000020: 1e1d fe3c 000b 3b39 b8a5 e5bc 08b2 bcbb
00000030: 59a0 113d 5c38 843c ac68 30bd 819b b0bc
00000040: d00d 8fbb 2bde 083d 425f c13c e0b1 003b
00000050: f859 d33c 689d c63c bcb5 09bd d224 03bd
00000060: f031 d6bb f809 283c 4e36 fe3c 201c 073b
00000070: 72c8 df3c 15b2 8abc 7694 0fbd 3c14 a13c
00000080: 13d3 173d 8618 703d 064f 883d 715f 1e3e
00000090: 129c 063e 18ab 743e 0ca0 983e b26c af3e
000000a0: e514 c53e 0184 b03e 8415 1d3e 2f65 023e
000000b0: c1b2 0d3e eabc 8c3e 10f7 923e 1e96 883e
000000c0: 1135 223e c5d8 d83d ca5f 553d 57b2 d23c
000000d0: d857 64bc ea75 833c 5223 f73c 5270 da3c
000000e0: dc26 ae3c d458 76bc e4fb 1c3d 31e7 fe3c
000000f0: d1cc ca3d ec32 213e f30b 553e 9a02 993e
00000100: 27e5 b53e dc16 ad3e 5bf4 d13e 0528 d73e
00000110: 2bca b03e 0531 8b3e df6c 643e d88e e43d
00000120: aaa2 3b3e e162 813e 185f 9f3e bf59 d13e
00000130: 2d10 033f d6de d43e 0650 8d3e 6f8e 3b3e
00000140: a8cd 103e 969f 153d 0c43 06bd 9d9b 11bd
00000150: 00f7 553c 1c59 dfbb f302 96bc 8abd b23b
00000160: c63f 693d 6247 6b3d 8189 e63d 3c1c 4b3e
00000170: ba35 503e ef54 2b3e 409d 403e 74da 353e
00000180: 7aa9 db3d 4e15 1c3e f86d 0b3e 4112 d03d
00000190: e750 893d 0fe5 bf3d e375 2d3e 7e75 383e
000001a0: 771f 2b3e cf71 733e 0cd5 783e eb63 483e
000001b0: f301 303e ba40 c23c 7e19 013d 489f aebc
000001c0: e8b8 933b c9d7 443a cd4d b53c a896 40bc
000001d0: eeb6 1abe d9a0 ecbd 4f0a 91bd 00d2 45bd
000001e0: 1e88 58bd e027 dfbc 6967 d63c ef10 943b
000001f0: 7825 91bd 453b aebc 3406 1dbb 83a9 a63d
00000200: 3676 c53d b81a 133e 8f2e 8c3d f3b3 833d
00000210: f0d0 c13d a60b 123e 73b8 153e 995f 3d3e
00000220: 28a6 023e dc9b 923d 20f1 0c3d b3e6 253c
00000230: 5a43 acbc 160b e23c 27ff 64bc 12e2 e0bd
00000240: 3600 5fbe c3ea 9ebe dd12 80be 7c27 18be
00000250: 6fd2 95bd 55d6 7ebc dfc7 013d 7756 6cbd
00000260: 3421 0cbd b02c f8bc ed0b 283d d8aa 21bc
00000270: 9f8b f03c ec02 253e dd65 0f3e 420c 1f3e
00000280: 7379 303e d5db 133e 4a0f 3f3e c204 283e
00000290: dcdd 173e a439 f43d 5454 2e3e bc3e 853d
000002a0: e035 333b b27a 55bd 6254 1bbd e57d 45be
000002b0: 7640 89be 7f4a 8bbe d0f6 74be a407 1abe
000002c0: 30da babd 08d5 c2bd 6edb edbd 451c 9abd
000002d0: 7d4b c0bc cb06 333c 7074 283d 9ece 333d
000002e0: c090 95bb 93fa 003c b414 0f3d 5db4 c23d
000002f0: f111 883d b388 b33d 7710 123e b1c2 423e
00000300: 7c76 6a3e 09a3 403e 9939 ae3d 48a4 853d
00000310: 92dd a93c 1d70 efbc a170 2bbd 4ff9 88be
00000320: 125b c7be fd29 aebe 79d2 57be 0b93 ecbd
00000330: 7e17 56bd 3246 b7bd 8ac0 9abc a39d 1f3d
00000340: 4130 10bc 9156 c73c c27d 993d b081 d23c
00000350: 8e51 d83c 09ba 273d 204c b33a 744b a63b
00000360: 6c1b 5fbc 7316 263d e004 d73d fe61 693e
00000370: 559c 8f3e 369e 413e c643 103b 9bc8 693d
00000380: 440e 42bc b795 50bc 5e0d 563c 950e 81be
00000390: df8b edbe 8c63 9bbe 3133 33be 5643 04be
000003a0: d020 b9bb 4568 87bc e4d7 ae3b 2a60 9b3d
000003b0: 4437 8c3d c886 133d deea 1f3d b66e 0b3d
000003c0: 9786 313b e0da 1fbd 4c7f 4abd 1646 4cbd
000003d0: 49b1 a53b 0f53 0e3d 81b7 e93a 6c69 3f3e
000003e0: fd5e ab3e 0ebc 463e 00e5 763d ca35 8e3c
000003f0: cab4 f2bc 3f9b c0bc e8ca 27bd 28e1 28be
-0.024389213 -0.01881809 0.033684652 0.01700478 -0.024541076 0.024693783 -0.0323223 -0.034608282
0.031019744 0.00017837808 -0.028033122 -0.0057585277 0.03555331 0.016140155 -0.043068573 -0.021558525
-0.0043656603 0.033415 0.023604993 0.0019637272 0.025799736 0.024244979 -0.03362058 -0.032017536
-0.0065367147 0.010256283 0.031031754 0.002061613 0.02731726 -0.01693062 -0.035053693 0.019662969
0.03706653 0.058617137 0.066556975 0.15466096 0.13145474 0.23893392 0.29809606 0.34262615
0.38492504 0.3447571 0.15340239 0.12733911 0.1383772 0.2748788 0.2870412 0.2667703
0.15840556 0.105882205 0.052093305 0.025719805 -0.013936959 0.016047437 0.03016821 0.026664887
0.021258764 -0.015035827 0.03832616 0.0311161 0.09902347 0.15742081 0.2080534 0.29884797
0.35526392 0.33806503 0.4100674 0.4202272 0.34529242 0.27185836 0.22307156 0.11160058
0.1832377 0.2527075 0.31127238 0.40888783 0.5119656 0.4157626 0.27600116 0.18316053
0.14140952 0.036529146 -0.032778785 -0.035548795 0.013059378 -0.0068160426 -0.018311953 0.0054547237
0.056945585 0.057441123 0.112566955 0.1983499 0.20332995 0.16731618 0.18809986 0.17759115
0.107256845 0.15242502 0.13616168 0.10159732 0.06704884 0.09369861 0.16939501 0.1801357
0.16711222 0.23773883 0.24300021 0.19569366 0.17188244 0.023712505 0.031518452 -0.021316186
0.0045081265 0.0007508961 0.022131825 -0.011754669 -0.15108845 -0.11554117 -0.07082044 -0.048295975
-0.052864186 -0.027240694 0.026172357 0.00451862 -0.07087225 -0.021268496 -0.0023959996 0.081378005
0.096416876 0.14365661 0.06844818 0.06430807 0.0946368 0.14262256 0.14621143 0.18493499
0.12758696 0.07158634 0.034409642 0.010125804 -0.02102821 0.027593177 -0.013976849 -0.109806195
-0.21777424 -0.31038484 -0.25014392 -0.14858812 -0.07315528 -0.01555403 0.031684753 -0.057699647
-0.034211352 -0.030294746 0.041027 -0.0098673925 0.029363452 0.16114396 0.14003702 0.1553202
0.17233829 0.14439328 0.18658176 0.16408065 0.14830726 0.119250566 0.17024356 0.06506106
0.0027345344 -0.052118964 -0.03792227 -0.19286306 -0.26806992 -0.27205274 -0.23922276 -0.15041977
-0.09123647 -0.09513289 -0.116141185 -0.07524923 -0.023473496 0.010926913 0.04112667 0.043898217
-0.0045643747 0.007872242 0.034931853 0.09507058 0.06644047 0.08766308 0.14264093 0.19019581
0.2289676 0.18812193 0.0850708 0.06525475 0.020735536 -0.029228264 -0.04185546 -0.26752707
-0.3893667 -0.3401641 -0.21076383 -0.11551484 -0.052268498 -0.089489356 -0.018890638 0.038968693
-0.008800567 0.02433327 0.074946895 0.025696605 0.026406076 0.0409489 0.0013679303 0.0050749127
-0.013617378 0.040548753 0.10498977 0.22791287 0.2804896 0.18908009 0.0022013052 0.057076078
-0.0118442215 -0.012731007 0.01306471 -0.25206438 -0.46395776 -0.30349386 -0.17499997 -0.12916312
-0.0056496635 -0.016529212 0.0053357948 0.07586701 0.068464786 0.03601721 0.039042346 0.03404113
0.0027088278 -0.039027095 -0.049437806 -0.049871527 0.0050565344 0.03474718 0.0017831178 0.18692559
0.33470908 0.19407675 0.060276985 0.017359633 -0.029627223 -0.023511527 -0.04096499 -0.1649214

features.0.bias f4 [20]
00000000: 2ead 713e d945 103c 6e64 943e 33dc 8a3d
00000010: c48d 8e3c 8d27 12bd 1c79 353e faa5 dc3d
00000020: 02a0 17be 13f8 3cbd d0ba 613e b5e4 8b3d
00000030: 6f29 03be 5646 72bd 2f55 903d 15e3 8bbd
00000040: 2f8b 313d 2d28 f3bd 9fd6 1ebe e66c a93d
0.23601219 0.0088057155 0.28982872 0.06780281 0.017401583 -0.03568225 0.17721981 0.10773845
-0.14807132 -0.04613502 0.2204392 0.06830732 -0.12808774 -0.05914911 0.070474975 -0.06830422
0.043345626 -0.11872897 -0.15511559 0.08272724

features.2.weight f4 [20, 20]
00000000: d2be d13d 1e1a 63be 1885 a43d 6f56 243e
00000010: cd0a 4b3e 1939 873c 6bc4 2f3e efba 71be
00000020: baea bd3e 0be7 073f 033f 4e3e a77a 6ebe
00000030: be85 42be 11f3 aebd fbe6 2bbe 8902 4b3e
00000040: c8fd 903e ae2a 0a3e 5839 433e 47c0 973e
00000050: 0ff9 08be 26de 0a3f 5a75 21be 0239 893e
00000060: 375c d43e a303 733e b7c9 02bd a770 0c3d
00000070: 0ec4 043f e014 acbe 82ec 07bd 0ace 123e
00000080: 8801 fdbd f6e8 fdbd e51e 31be 1244 083e
00000090: 28c4 c53c 5b44 ec3d f975 753f 8708 6abe
000000a0: 2ebc 143f 96cb b03e d98d ba3c c478 1ebe
000000b0: f81c 923e f965 7ebe 33c2 5fbe 12d6 7abd
000000c0: 06a1 073e ffe3 893e 8ee6 07be 413e 403c
000000d0: e48f 1a3e 00c6 573d 7250 be3e bf1f 143e
000000e0: 1220 ea3e b91b a33e 2df9 99be 2516 84be
000000f0: c95f ec3e fd2f da3d a94d 5ebe 2d17 793e
00000100: aa45 e8be d857 05be 1897 1bbc 3e89 b33e
00000110: c61b febd 6d81 0ebf c84b b6bd c597 8b3e
00000120: cde2 783e b7e4 e03e 5f8e d63d 1d06 6d3d
00000130: 56f7 463e 5393 85be b686 4d3b bc47 5dbe
00000140: aabd b2be 2f82 963e 0d96 84bc 95e4 5a3c
00000150: d220 433e 2cba debd d667 16be 95de 423e
00000160: 7e44 c5bd 4a8e a7bd 5970 b7bd bbbd 753e
00000170: 0b80 c63e 4f69 b1be 7cce c23d 0570 fdbd
00000180: 55c8 123e 0c8d 5c3e df7e 5f3e 843b fd3d
00000190: a29f 043e b301 b23d 4192 373e c51a 0f3e
000001a0: 5ca2 fe3d 1ea4 91be ce5c 2abb 1e5b 52bd
000001b0: 62e7 c03e 88dc d43e 9cc4 4ebe f659 dbbd
000001c0: bdcb dfbd 2902 d1be 65bb 283e 88e1 8dbc
000001d0: 200f b13d 859b b1be 6206 123f 36d3 fb3e
000001e0: 62d4 a1be 6b48 4cbd d1cb 673e ed44 54bc
000001f0: f9a4 873e 39c2 afbe ffa4 053e 952e 763e
00000200: 4f85 59be 5360 6abe c664 ba3d 4e07 7c3e
00000210: 18b0 863e 28b1 0d3c 2a69 893e b4de 22be
00000220: 2f94 8bbe 5472 e23e af93 7bbd 1613 d03d
00000230: 8b79 34be 26a3 003e 1a10 c83e 092e 713e
00000240: c5c2 e7bd 797b 213f 6d3e 6c3c b95c dd3d
00000250: 4611 ef3d 9018 7dbe 2b1b f73e 488c b23e
00000260: a6a4 503e 1b57 aa3e 6e48 8c3e 6219 923e
00000270: 427f 1fbe 823e 3cbe f7db 4d3e c285 373e
00000280: 0283 e33d 765b d5be 67a5 86be c545 7ebd
00000290: 6a32 dcbd 70e1 353f 1dca b03e d0e4 75be
000002a0: b7c5 e9bc 5f58 f93e 7c3d c6bd 5cc6 373e
000002b0: f294 ee3d 5439 933e 164a 8d3e abf2 893e
000002c0: 4002 cb3e 7159 9a3d 58d5 a9be 380d 1d3d
000002d0: b843 ccbe 2c98 69be 0f6c 79be f069 0e3e
000002e0: 005e 6d3d 70a7 313e 3222 163e 0419 933d
000002f0: 0f2e 893e 4574 c13e b2e5 66be 9a66 a23e
00000300: a57b 933e ee43 31be fe38 f63d f709 3cbe
00000310: 7784 ac3b e6c1 ea3e 8222 d53e 43fe 153f
00000320: a85e 91bc 9769 99bd fe93 4fbd 983e 893e
00000330: ae1f 15be b1e1 0cbe d326 76bd c472 b73d
00000340: 5e16 bc3e 1937 53bf c6c7 a4be 7f1c 62be
00000350: 67da 703e 52c2 e73e 58cd 1c3e a918 a63e
00000360: 2705 703d 3274 403e 0e94 19be 71f2 8b3d
00000370: f3d4 48be 07a0 203d 8f66 d73e 9d94 ac3e
00000380: 12a1 063e 80c0 3ebe 72b0 c63e 76d2 6e3e
00000390: bb5c 08be 8d26 36bf b410 f83d d3a6 89be
000003a0: 63b4 25be 2f13 ffbc a91e 37be 6bf2 b13e
000003b0: d52b ae3b 9732 adbd bd23 b0bd af31 853d
000003c0: ac72 d43d 30b6 80bc 4ef7 08be 40df f7bc
000003d0: 705e 33bd 187c 53bd 9ace 093e 4f9e e9bd
000003e0: e00f da3b 9849 edbc ec13 1cbe f093 7d3c
000003f0: e897 35be 140c d73d 50c4 733c 5452 f4bd
0.10241474 -0.22177932 0.08033198 0.16048597 0.19828339 0.016506718 0.17164771 -0.23606466
0.37093145 0.5308692 0.20141225 -0.23288976 -0.18996331 -0.08542455 -0.16787331 0.19825186
0.2831862 0.13492844 0.19064844 0.29638883 -0.13376258 0.5424522 -0.15767422 0.26801306
0.41476604 0.23731856 -0.03193065 0.03428712 0.51861656 -0.33609676 -0.033184536 0.1433641
-0.12353808 -0.123979494 -0.17296942 0.13307217 0.024141386 0.11536475 0.95883137 -0.22854815
0.5809964 0.34530324 0.022772716 -0.15475756 0.28537726 -0.24843587 -0.21851425 -0.06123931
0.1324502 0.2693176 -0.13271543 0.0117335925 0.15093952 0.052679062 0.3717075 0.14465235
0.45727593 0.31857088 -0.3007292 -0.25798145 0.46166828 0.10653684 -0.21709312 0.24325247
-0.4536565 -0.13021791 -0.009496473 0.35065645 -0.12407641 -0.5566624 -0.08901173 0.27264228
0.24305268 0.43924496 0.10476374 0.05786716 0.19430289 -0.26088962 0.0031360812 -0.21609396
-0.34910327 0.29396197 -0.016184831 0.013360162 0.19055489 -0.10875353 -0.14688048 0.19030221
-0.096322045 -0.08181436 -0.089569755 0.23998158 0.38769564 -0.34650657 0.0951204 -0.12374882
0.14334233 0.2153818 0.21825741 0.12364867 0.1295152 0.0869173 0.17926885 0.13975056
0.12433311 -0.28445524 -0.0025995257 -0.051356427 0.3767653 0.41574502 -0.20192188 -0.10710518
-0.10927532 -0.4082196 0.16477735 -0.017319456 0.08645463 -0.34688964 0.5704099 0.4918458
-0.31607348 -0.04987375 0.22636344 -0.012955886 0.26493052 -0.34327868 0.13051222 0.24041207
-0.2124226 -0.22888307 0.09101252 0.24612162 0.26306224 0.008648194 0.26838046 -0.15905267
-0.27261493 0.4422785 -0.06142014 0.1015989 -0.1762449 0.12562236 0.39074785 0.23552717
-0.11316446 0.6307903 0.01441918 0.10808701 0.116732165 -0.24716401 0.48262915 0.3487265
0.20375308 0.3326958 0.2739901 0.2853499 -0.15575889 -0.1838322 0.20103441 0.17922118
0.11108972 -0.41671342 -0.26298067 -0.062078256 -0.10751803 0.71047115 0.345292 -0.24013066
-0.02853666 0.48700234 -0.09679696 0.17946762 0.11649503 0.28754675 0.27595586 0.26942953
0.39650154 0.07536591 -0.3317058 0.038342685 -0.39895415 -0.22811955 -0.24357627 0.139076
0.057950974 0.17349029 0.14661482 0.07182506 0.26792952 0.3778402 -0.2254856 0.31718904
0.2880527 -0.1731107 0.12022589 -0.18363176 0.0052648145 0.45851058 0.4162789 0.585911
-0.01774533 -0.07490843 -0.050678246 0.26805568 -0.14562866 -0.1375797 -0.06009562 0.08957437
0.36735815 -0.8250595 -0.32183665 -0.22081183 0.23520814 0.45265442 0.15312707 0.3244069
0.058598664 0.18794325 -0.14997885 0.068333514 -0.19612484 0.039215114 0.42070433 0.33707133
0.13147381 -0.1862812 0.38806492 0.23322472 -0.13316624 -0.71152574 0.12112561 -0.2688509
-0.16182093 -0.031137077 -0.1788279 0.34755263 0.005315284 -0.08456915 -0.086005665 0.06503617
0.103734344 -0.015711874 -0.13375589 -0.030257821 -0.043791234 -0.051632017 0.13457718 -0.11407148
0.0066547245 -0.028965756 -0.15241975 0.015477166 -0.17733729 0.105003506 0.0148783475 -0.11929765

features.2.bias f4 [20]
00000000: 8f66 c1bd e96c 0fbe 3b1b 0c3e 0565 87bd
00000010: aa96 95bd 456f a13e c284 4fbe f513 f2bc
00000020: a587 2cbe 2fb2 883c cd46 f1be 6d95 903e
00000030: af43 40be 1749 e33e d449 46be c99b 4fbc
00000040: 4623 d63d 99ad 5bbe 630d 983e 6c57 6c3d
-0.094433896 -0.1400639 0.13682263 -0.06611065 -0.073041275 0.31530204 -0.20265487 -0.029550532
-0.1684862 0.016686527 -0.4712433 0.28239003 -0.18775819 0.443917 -0.193641 -0.012671419
0.104559466 -0.21452941 0.29697713 0.05770056

features.4.weight f4 [10, 20]
00000000: 1558 7f3e f6b0 343e 40f5 823e 11a4 dfbd
00000010: 740f 89be 31a2 8ebd a200 cdbe cc23 e4be
00000020: 7528 36be 481a f3be c3e4 703e 28e3 543e
00000030: 5c6a 03be 2fd9 cfbe d0d1 98bc 1a79 9b3e
00000040: 6ace adbe cb43 0bbe 1d7f dfbc 8067 403d
00000050: b129 c9be 6803 953e fa49 7f3e 7393 63be
00000060: 6380 473e d2eb 9bbe 23a9 943e f200 3ebe
00000070: 5fe8 a7be ff27 043e 8446 19bf 0b9a 41bf
00000080: c801 563d 0a0b e03e c476 a7bd 639e c8be
00000090: 82fc 023e ab94 563d 1728 f8be 160e eabe
000000a0: 66ca f1bd 08bb b13e c71b 34be 844e 8e3e
000000b0: 6742 1f3e df58 533e dcf9 e8be c912 133e
000000c0: 0105 8e3d 1d15 bd3d 5699 da3d 46e0 7fbe
000000d0: 9832 493e 565d f1be d2de 42bd c6ad 83be
000000e0: a96d 19bd f8ea 363e de0c 9bbd e1aa ecbe
000000f0: 2e7d 163e c4bf 3c3d 6dff c23b d4cd c0be
00000100: 5547 983e 6e22 b83d 8554 633d 6d9f 323d
00000110: c4ac 7c3e 203b 363e a810 4ebe 096c babe
00000120: bc90 923d 16c2 e2be 8852 3fbe b548 93be
00000130: d4b8 c5be 43e1 8fbd be7f 00bf 014f 653e
00000140: e74b 17bf 19d6 0dbf f6ed b8be 093e e63d
00000150: c981 f9bd b5c9 43bf fbaa 0e3e 317f c23d
00000160: 8f7e 2a3e 8534 c8be cc1b 77be 5246 1d3e
00000170: 5484 c63d 7fe0 a43c 1d2c fdbd 2020 b4be
00000180: 6012 debe e5a7 ba3d ad77 cc3e c528 9a3e
00000190: 31f9 a03e 53c3 28be 7cd0 673e 9167 15be
000001a0: 708d c1be 15d2 793e 62da 1cbf bd2a cc3d
000001b0: 0e10 8f3e 98ed c2be 3d90 ccbe f1d4 71be
000001c0: bffc 0abe 25fb 133e 8c91 a33d 6bc9 d9be
000001d0: 4af0 383d d6f3 8d3d 5dc5 a4be 4756 6d3e
000001e0: b8de d3be 2b2a a5be 07f3 883e 184c c03e
000001f0: 13ae ef3d 7076 b7be fd20 953d 786f 45bc
00000200: 9102 51be acf3 2bbf bb68 063e ffc3 b0be
00000210: 0cda 53be 112e 03bf 48a4 34be 0dba 41bd
00000220: 94a0 fb3d 0771 dabd 0fed 043e 9067 4cbe
00000230: f68d 273e bfa5 313e ae36 19bf 13a2 a3be
00000240: 2135 babd 7cf2 eb3e a2eb 6c3d f457 c83d
00000250: 877b 6dbf 56fc 67be 92d9 73be c7f6 b83e
00000260: 8024 e53b 548c e63d 6a27 173d 1948 a0be
00000270: 3330 2abd 474b b03d c9d9 3cbe f42d ee3d
00000280: 35a8 193d ec91 c43d ac74 95bd 00e0 0e3d
00000290: 0d56 d0bd e3a6 35bf 4658 92bd 4a8b 5a3e
000002a0: 1dbd eb3d abc3 3bbe c13e c63e d7d9 c7bd
000002b0: fc84 103e 67a9 813d f7eb 67be fa02 e9bd
000002c0: bf48 3e3c d67a cbbd 81e9 36bf 81c1 c1bd
000002d0: 6095 d4bc b81f 12bf 9b61 f7be e631 8cbd
000002e0: 85d2 bfbd 6861 c8bd 6ac9 dd3c e827 7fbd
000002f0: d5e3 26bd 757b 713e fc68 5c3d 43b4 823c
00000300: de33 54be 7efa 223e 3875 f23a 950c de3e
00000310: ea70 433e 52fe 0f3e f33d 943d 3be4 8fbd
0.24935944 0.1764563 0.25577736 -0.10919965 -0.26769602 -0.06964529 -0.40039545 -0.4455856
-0.1778887 -0.47480989 0.23524766 0.20789778 -0.12833542 -0.40595385 -0.018654734 0.3036583
-0.33946544 -0.1360008 -0.027282292 0.046973705 -0.3928962 0.2910416 0.24930564 -0.22224216
0.1948257 -0.30453354 0.2903529 -0.18555048 -0.32794473 0.12905882 -0.59873223 -0.75625676
0.052247792 0.43758422 -0.081769496 -0.3918334 0.12791637 0.052387875 -0.48468086 -0.45713872
-0.118061826 0.34713006 -0.17588721 0.27794278 0.15552674 0.2063937 -0.45503128 0.14362635
0.06934548 0.09232543 0.10673778 -0.24987897 0.19648206 -0.47141522 -0.04757578 -0.25718516
-0.037458096 0.17863071 -0.075708136 -0.4622412 0.1469619 0.04608132 0.0059508593 -0.37657034
0.29741922 0.08990942 0.055500526 0.04360907 0.2467528 0.17795992 -0.20123541 -0.3641055
0.07156512 -0.442887 -0.18683827 -0.2876641 -0.38617575 -0.07025387 -0.5019492 0.22393419
-0.5910019 -0.5540481 -0.3611905 0.11242301 -0.12182958 -0.76479656 0.13932411 0.09496916
0.16649841 -0.3910257 -0.24131697 0.15358856 0.09693208 0.02012658 -0.123619296 -0.3518076
-0.43373394 0.091140546 0.39935055 0.3010923 0.31440118 -0.1648076 0.22638124 -0.14590289
-0.3780322 0.24396546 -0.61270726 0.09969089 0.27941936 -0.38071895 -0.39953795 -0.23616387
-0.13572977 0.14451273 0.07986745 -0.42536482 0.045151033 0.06931274 -0.32181826 0.23177443
-0.41380858 -0.32258734 0.26747915 0.37558055 0.11703124 -0.35832548 0.07281683 -0.012050502
-0.20411135 -0.6716869 0.13125889 -0.34524533 -0.20688647 -0.51242167 -0.17640793 -0.047296572
0.12286487 -0.106660895 0.12981056 -0.19961381 0.16362748 0.17348383 -0.5984906 -0.3195959
-0.09092165 0.46083438 0.057841904 0.09782401 -0.9276661 -0.22654852 -0.23813465 0.36125776
0.0069928765 0.11257234 0.036902823 -0.31305006 -0.041549873 0.08608108 -0.18442453 0.116298586
0.03751393 0.09598145 -0.07297644 0.03488159 -0.10172663 -0.70957774 -0.07145743 0.21342197
0.1151068 -0.1833636 0.38719752 -0.097583465 0.1411323 0.06331139 -0.22648607 -0.11377521
0.011614024 -0.099355385 -0.7145005 -0.09460736 -0.025950134 -0.5707965 -0.48316655 -0.06845455
-0.09366325 -0.09784204 0.02707358 -0.062293917 -0.04074462 0.23582251 0.05381106 0.015955096
-0.20722911 0.15915868 0.0018498069 0.43368974 0.19086042 0.14061859 0.072383784 -0.070259534

features.4.bias f4 [10]
00000000: bf34 3fbe 864b 883e 1ba3 ee3d 57d1 f4bd
00000010: ce81 243e 9d1c 9f3e 706a 003e 298a 533e
00000020: 6c1e b6be 81e6 4dbe
-0.18672465 0.2662012 0.11652204 -0.11953991 0.16065142 0.31076518 0.12540603 0.20658173
-0.35570085 -0.20107462
