Demo code/StudentModel.pth (torch, 67351 bytes, 6 tensors)

features.0.weight f4 [20, 784]
-0.00026738644 0.019158702 -0.02939447 -0.026283538 -0.013755513 0.009577051 -0.00070761517 0.028317485
-0.0031694286 0.009450451 -0.010793325 -0.007020192 -0.031997107 -0.01633107 0.0043256637 0.020110983
0.014119115 0.021429386 -0.024212182 -0.015552245 0.012972042 0.029656712 -0.007350007 0.026725423
-0.0057565495 0.003779076 0.032338437 -0.033131085 -0.022483498 -0.009041617 -0.013921427 0.030857172
-0.041595995 -0.025751876 0.014825276 -0.001682393 0.014470712 0.05150044 0.0061265803 -0.030983057
-0.026519123 -0.13338517 -0.015956663 0.033460576 0.06424507 -0.015964912 -0.07893143 -0.042617045
-0.06467041 -0.022952752 -0.008070912 0.03092794 0.0141743645 0.0048247464 0.023945943 -0.021028657
0.0066551454 -0.027689483 -0.024035366 -0.024531938 -0.044503123 -0.0007478592 0.062433977 0.08906995
0.1743459 0.21010065 0.2474515 0.23815948 0.29022932 0.26914433 0.2321337 0.2349457
0.25033003 0.17872195 0.13277623 0.09212979 0.115083225 0.107758075 0.12372448 0.05361704
0.039900284 0.04464211 0.027155709 -0.035626 0.006684717 -0.0060164295 0.030893235 -0.010973355
-0.016069181 -0.059591338 0.015079965 0.022970513 0.0015386877 0.03715018 0.018364016 -0.05113148
-0.033496246 0.018377827 -0.06812114 -0.053289786 0.019974293 -0.043739352 -0.11848426 -0.14128447
-0.19947791 -0.056299478 -0.020836191 0.047035955 0.03085156 0.08046153 -0.030997211 0.021192059
-0.021733541 0.013425474 0.04715494 -0.08547059 -0.061269745 -0.06610661 -0.049114086 -0.08113769
-0.051092047 -0.02509767 -0.01945264 0.028928803 0.051603373 0.09955764 0.1389648 0.09766709
0.11035735 0.06467084 -0.014392246 0.004657421 0.02064457 -0.0056424527 -0.0048114336 0.04546875
-0.08280697 -0.04736788 -0.0027670222 0.05931896 0.03383022 0.02268057 0.06347915 -0.083433695
-0.090584956 -0.13193902 -0.09734815 -0.1133765 -0.10311782 -0.07995674 -0.059526004 -0.012920826
0.064120814 0.08840738 0.14314318 0.089844614 0.1476359 0.12633239 0.112136334 0.091263086
0.11296226 0.13340805 0.09142476 0.12580734 0.093141094 -0.06020153 -0.10878311 0.029519785
-0.032144945 -0.023296412 -0.0018190768 -0.15315843 -0.035935577 -0.13905793 -0.17707728 -0.07265154
-0.10288616 -0.10985424 -0.060136333 -0.09494776 -0.046157833 -0.08712226 -0.03653846 -0.03587236
-0.040533155 -0.018729858 -0.011010889 0.07275695 0.0499838 0.0966923 0.16294046 0.22693227
0.082716525 -0.0017391244 -0.070638195 -0.009510079 -0.024240872 -0.072974935 -0.06640093 -0.18331073
-0.08959183 -0.12850238 -0.16044505 -0.10878642 -0.09701534 -0.078005984 -0.08909227 -0.03930993
-0.08716962 -0.062494338 -0.07384543 -0.10613424 -0.089344785 -0.072986886 0.01895126 0.05959203
0.0320375 0.13312759 0.21872488 0.16858575 0.15834147 0.019137168 -0.01381075 0.05169204
-0.014130029 -0.046488594 -0.08075085 -0.13051906 -0.11051097 -0.13399993 -0.09539748 -0.044237617
-0.087694936 -0.033371817 0.004496768 -0.014895727 0.05255969 0.057238262 0.007870863 -0.0024390805
-0.035023563 0.03353852 0.019934176 0.093908794 0.08899464 0.067296475 0.12543029 0.15757912
0.06436883 -0.054852713 -0.0125041185 0.009253426 0.013003933 -0.07579771 -0.12294756 -0.11221157
00000000: 0030 8cb9 b6f2 9c3c accc f0bc 9350 d7bc
00000010: ce5e 61bc 10e9 1c3c 407f 39ba 12fa e73c
00000020: 30b6 4fbb 10d6 1a3c 7cd6 30bc a409 e6bb
00000030: 660f 03bd bcc8 85bc 4cbe 8d3b cabf a43c
00000040: dc53 673c ae8c af3c a058 c6bc d8ce 7ebc
00000050: b088 543c a2f2 f23c 54d8 f0bb 46ef da3c
00000060: 70a1 bcbb 60aa 773b 4f75 043d 76b4 07bd
00000070: 502f b8bc 4a23 14bc b216 64bc 2ec8 fc3c
00000080: 9060 2abd 99f5 d2bc b7e5 723c be83 dcba
00000090: 9116 6d3c 20f2 523d 7bc1 c83b 2ed0 fdbc
000000a0: a23e d9bc 1f96 08be 8cb7 82bc f50d 093d
000000b0: eb92 833d d9c8 82bc cda6 a1bd 368f 2ebd
000000c0: eb71 84bd 6907 bcbc dc3b 04bc 975c fd3c
000000d0: 983b 683c e818 9e3b 482a c43c 4a44 acbc
000000e0: 6813 da3b 0ed5 e2bc d1e5 c4bc 34f7 c8bc
000000f0: e848 36bd fb0b 44ba c5ba 7f3d 4e6a b63d
00000100: bb87 323e a024 573e ed63 7d3e 14e0 733e
00000110: f098 943e 49cd 893e 75b4 6d3e 9b95 703e
00000120: 422b 803e e302 373e 7ef6 073e 8bae bc3d
00000130: c1b0 eb3d 44b0 dc3d 4363 fd3d 8b9d 5b3d
00000140: 7b6e 233d a5da 363d a675 de3c 92ec 11bd
00000150: 780b db3b 7825 c5bb cf13 fd3c 96c9 33bc
00000160: 84a3 83bc 0c16 74bd f511 773c a82c bc3c
00000170: cbad c93a ca2a 183d 2270 963c 3e6f 51bd
00000180: 5c33 09bd 198d 963c 1983 8bbd 6446 5abd
00000190: 21a1 a33c 0928 33bd e0a7 f2bd e0ac 10be
000001a0: f043 4cbe 489a 66bd a9b0 aabc c6a8 403d
000001b0: 69bc fc3c 04c9 a43d dded fdbc f89a ad3c
000001c0: 8a0a b2bc 85f6 5b3c 8a25 413d 340b afbd
000001d0: fcf5 7abd e762 87bd da2b 49bd 842b a6bd
000001e0: e545 51bd a199 cdbc 255b 9fbc 19fc ec3c
000001f0: 0f5e 533d e0e4 cb3d ca4c 0e3e af05 c83d
00000200: 0903 e23d 2572 843d 74cd 6bbc 479d 983b
00000210: cd1e a93c 53e4 b8bb 3ba9 9dbb 713d 3a3d
00000220: b396 a9bd d204 42bd ee56 35bb 70f8 723d
00000230: 8f91 0a3d 9acc b93c 5b01 823d 49df aabd
00000240: 9b84 b9bd 061b 07be 785e c7bd f031 e8bd
00000250: 702f d3bd 5cc0 a3bd 8ad1 73bd dfb1 53bc
00000260: c651 833d ee0e b53d 2094 123e 7400 b83d
00000270: de2d 173e 475d 013e bca7 e53d 24e8 ba3d
00000280: c258 e73d 1f9c 083e e83c bb3d a4d3 003e
00000290: c2c0 be3d e195 76bd aec9 debd 7ad3 f13c
000002a0: 6baa 03bd 1ed8 bebc 176e eeba 90d5 1cbe
000002b0: 2f31 13bd 3465 0ebe bf53 35be 55ca 94bd
000002c0: fbb5 d2bd 43fb e0bd 8451 76bd f973 c2bd
000002d0: ff0f 3dbd 286d b2bd 5aa9 15bd e5ee 12bd
000002e0: 1806 26bd 5c6f 99bc 0467 34bc 9901 953d
000002f0: d0bb 4c3d 9d06 c63d ddd9 263e ef60 683e
00000300: 4867 a93d 55f3 e3ba c2aa 90bd 2ad0 1bbc
00000310: cb94 c6bc e273 95bd 36fd 87bd cfb5 3bbe
00000320: ec7b b7bd 2196 03be b54b 24be 6acb debd
00000330: fbaf c6bd 9ac1 9fbd 0276 b6bd 7303 21bd
00000340: fc85 b2bd 10fa 7fbd 463c 97bd e95c d9bd
00000350: 66fa b6bd 267a 95bd ac3f 9b3c c616 743d
00000360: c139 033d 9952 083e 6af9 5f3e bea1 2c3e
00000370: 4424 223e 8dc5 9c3c 7c46 62bc 08bb 533d
00000380: a381 67bc d36a 3ebd b460 a5bd caa6 05be
00000390: 9353 e2bd 4737 09be c15f c3bd 8132 35bd
000003a0: 6799 b3bd e3b0 08bd a059 933b 350d 74bc
000003b0: d448 573d ab72 6a3d cbf4 003c fbd8 1fbb
000003c0: de74 0fbd b05f 093d ff4c a33c 4153 c03d
000003d0: d242 b63d bcd2 893d cc70 003e 6c5c 213e
000003e0: ced3 833d 3dad 60bd 13de 4cbc af9b 173c
000003f0: 730e 553c d43b 9bbd eecb fbbd 2ecf e5bd

features.0.bias f4 [20]
0.1458455 0.18251564 -0.1310273 0.09027376 0.10926595 0.07499721 0.18648696 0.0169225
0.08907163 -0.042154577 0.11550932 0.18105485 0.15528366 0.016113902 -0.07471767 -0.1429546
0.26091546 -0.0038109918 0.0825166 0.19754316
00000000: 8658 153e 61e5 3a3e 052c 06be 73e1 b83d
00000010: d4c6 df3d 2398 993d 70f6 3e3e 0ea1 8a3c
00000020: 306b b63d 47aa 2cbd 2690 ec3d 7166 393e
00000030: ae02 1f3e 4d01 843c 9405 99bd b162 12be
00000040: b696 853e d5c1 79bb 77fe a83d c148 4a3e

features.2.weight f4 [20, 20]
0.06234423 0.3045467 0.30886438 0.20352128 -0.22708787 -0.44367224 0.30432287 -0.38386643
0.6661038 -0.23551694 -0.16612479 0.51864696 -0.022237506 -0.17498627 0.5709513 -0.3362514
0.26482978 -0.122297585 -0.0068236976 0.37173864 0.26032656 -0.22817196 -0.0603484 0.2703274
0.6078954 -0.42076483 0.31493703 0.58318806 -0.404147 0.16611154 0.014141658 -0.3821732
0.063954026 -0.15690024 -0.4604147 0.014178555 -0.064343646 0.029595517 -0.008179975 0.1521583
0.049812518 0.48157254 -0.2210248 0.25000468 0.41980404 0.027089993 -0.07048636 0.004890951
0.12445216 0.14771491 0.061004236 0.12163546 0.49877903 0.081106365 -0.04674064 -0.19148554
0.29746625 -0.30504057 -0.0639444 0.057704322 0.54781014 -0.14103732 0.04511923 0.38288113
-0.57333285 0.2525814 -0.20960334 -0.35291865 0.054736424 0.041872337 -0.16205932 0.45318294
0.053336054 0.12006259 0.14218897 0.0861551 0.30723694 -0.0696806 0.03414973 -0.1211697
-0.35225326 0.40563527 -0.12104567 0.15598676 0.4819919 0.31972343 -0.11221223 0.3400958
0.4691797 0.043510564 -0.119407475 0.25531825 0.5822275 -0.15365776 -0.08286848 -0.21091628
0.10582667 0.10725949 0.30700687 0.053480312 -0.09865433 -0.18960549 -0.18139161 0.43256208
0.3523288 -0.5786446 -0.22866637 0.08683983 -0.018556366 -0.11441764 -0.4137529 0.28626657
0.28985718 0.25963837 -0.5084083 -0.0014843651 -0.17682825 -0.32736593 0.43418005 0.29005468
-0.27764907 -0.25447223 0.2770609 0.36537677 0.23115528 -0.06792509 -0.013958686 -0.11452079
-0.446593 0.35806292 0.24652027 -0.0039342907 0.0056896787 0.36134484 -0.030841501 0.26503983
-0.022996362 0.14462087 0.057357278 -0.08266089 0.21745388 0.1535871 0.06733502 0.03406948
0.017945386 0.035164822 -0.13632895 0.5184955 0.5420305 0.22969723 0.0018973892 0.20579816
0.2165458 -0.27900246 0.63290465 -0.061787635 0.023831412 0.3136257 -0.10905064 -0.13038282
0.42945883 -0.0782704 0.16368489 0.13885666 -0.3973934 -0.047255505 -0.08106742 0.5778074
-0.24353889 -0.06764197 -0.3250043 0.13182102 -0.48450062 0.0002702277 0.2384955 0.09827116
-0.023360362 0.29184073 0.23506683 -0.0933452 0.05036305 -0.10780122 0.35936302 -0.14672168
-0.07549853 -0.17790276 0.5055497 -0.24686085 -0.2937389 -0.24260072 -0.2875301 0.06453851
-0.63593733 0.18613794 -0.27066785 0.21712576 0.06889797 -0.18388867 0.19444676 0.3580905
-0.24362566 -0.42433354 0.34470576 0.020908266 0.06168849 -0.59412503 -0.23014544 -0.4077338
0.35395443 0.21746263 0.2404936 0.14433767 -0.06651441 0.04343342 0.5228959 -0.09197136
-0.37924048 -0.06886783 0.2824646 0.20124477 0.026107943 -0.13742246 0.17387255 0.019142274
-0.13051644 0.19665936 -0.04877437 0.08418627 0.0690437 0.3062047 -0.24753828 -0.34693304
-0.40643525 -0.1586455 0.057349175 0.5686999 0.176268 0.43184292 0.25199252 0.06368647
-0.15403046 0.13740301 0.1618945 -0.21723434 -0.029657958 0.04200818 0.2877395 0.6450078
-0.28267223 0.07390227 0.051534466 0.066855125 0.17746891 -0.17371649 -0.020294782 -0.31236285
00000000: aa5c 7f3d 8ced 9b3e 7923 9e3e e267 503e
00000010: b989 68be 0229 e3be 35d0 9b3e 248a c4be
00000020: c785 2a3f 5a2b 71be 9e1c 2abe 0cc6 043f
00000030: 6e2b b6bc 9a2f 33be dd29 123f 2529 acbe
00000040: c597 873e 2877 fabd 5399 dfbb 8754 be3e
00000050: 8649 853e e9a5 69be e22f 77bd 5a68 8a3e
00000060: 089f 1b3f 7d6e d7be 6d3f a13e d04b 153f
00000070: 5bec cebe 2519 2a3e 6ab2 673c 35ac c3be
00000080: 54fa 823d 75aa 20be 7abb ebbe 2c4d 683c
00000090: 9ac6 83bd 4c72 f23c 4d05 06bc 63cf 1b3e
000000a0: 3608 4c3d ad90 f63e 5354 62be 9d00 803e
000000b0: 8ef0 d63e d5eb dd3c 275b 90bd 4544 a03b
000000c0: c6e0 fe3d 9442 173e 94df 793d 031c f93d
000000d0: f75f ff3e 181b a63d 1d73 3fbd c914 44be
000000e0: 7f4d 983e 472e 9cbe 48f5 82bd 5e5b 6c3d
000000f0: 493d 0c3f 166c 10be f1ce 383d ff08 c43e
00000100: f1c5 12bf 5952 813e 42a2 56be c1b1 b4be
00000110: 4d33 603d 5482 2b3d e1f2 25be 9807 e83e
00000120: e876 5a3d 60e3 f53d fc99 113e 1672 b03d
00000130: 294e 9d3e b4b4 8ebd 96e0 0b3d d227 f8bd
00000140: 8a5a b4be 6daf cf3e cbe6 f7bd feba 1f3e
00000150: a4c7 f63e cab2 a33e 87cf e5bd 0921 ae3e
00000160: 5238 f03e 2238 323d e88b f4bd 13b9 823e
00000170: dd0c 153f 7658 1dbe f3b6 a9bd 70fa 57be
00000180: a7bb d83d ddaa db3d 0130 9d3e 2c0e 5b3d
00000190: 480b cabd f127 42be b9be 39be c778 dd3e
000001a0: 7164 b43e 0d22 14bf 8427 6abe 15d9 b13d
000001b0: 8503 98bc cc53 eabd 6cd7 d3be 8891 923e
000001c0: 2968 943e 52ef 843e 0c27 02bf 078f c2ba
000001d0: 7712 35be 829c a7be d94c de3e 0c82 943e
000001e0: 0528 8ebe 2f4a 82be edda 8d3e aa12 bb3e
000001f0: f8b3 6c3e 4f1c 8bbd f9b2 64bc e089 eabd
00000200: d6a7 e4be 0654 b73e cf6f 7c3e 39eb 80bb
00000210: 7c70 ba3b 3102 b93e 51a7 fcbc 4db3 873e
00000220: de62 bcbc 7e17 143e 77ef 6a3d 1d4a a9bd
00000230: 3bac 5e3e f045 1d3e f1e6 893d 708c 0b3d
00000240: 3402 933c fd08 103d d199 0bbe 1fbc 043f
00000250: 83c2 0a3f c035 6b3e d1b1 f83a c1bc 523e
00000260: 2fbe 5d3e 69d9 8ebe 0a06 223f 0815 7dbd
00000270: 183a c33c 8c93 a03e f155 dfbd 1383 05be
00000280: 07e2 db3e 3b4c a0bd 039d 273e 7130 0e3e
00000290: 2677 cbbe fd8e 41bd ad06 a6bd 30eb 133f
000002a0: 4262 79be e087 8abd f766 a6be 17fc 063e
000002b0: 7710 f8be 59ad 8d39 2a38 743e 6442 c93d
000002c0: 3b5e bfbc 266c 953e 5cb5 703e c52b bfbd
000002d0: 7c49 4e3d e3c6 dcbd 6efe b73e 353e 16be
000002e0: f99e 9abd 242c 36be b56b 013f 17c9 7cbe
000002f0: f264 96be 536c 78be 2537 93be c42c 843d
00000300: cacc 22bf f29a 3e3e fa94 8abe 3756 5e3e
00000310: 611a 8d3d 504d 3cbe 0d1d 473e a357 b73e
00000320: 0179 79be 3f42 d9be 467d b03e d047 ab3c
00000330: 12ad 7c3d 9418 18bf 3fab 6bbe 7cc2 d0be
00000340: 8439 b53e 86ae 5e3e f443 763e 41cd 133e
00000350: b538 88bd 3ee7 313d 81dc 053f 7b5b bcbd
00000360: cf2b c2be 940a 8dbd 339f 903e 1c13 4e3e
00000370: 53e0 d53c 79b8 0cbe a50b 323e 42d0 9c3c
00000380: 1aa6 05be 1261 493e a2c7 47bd da69 ac3d
00000390: c966 8d3d ddc6 9c3e ad7a 7dbe 35a1 b1be
000003a0: 4818 d0be f773 22be f8e6 6a3d 5196 113f
000003b0: 997f 343e 841a dd3e 2a05 813e 0d6e 823d
000003c0: 29ba 1dbe 60b3 0c3e acc7 253e ae72 5ebe
000003d0: 3ff5 f2bc c510 2c3d 9752 933e 3b1f 253f
000003e0: 6aba 90be 135a 973d ce15 533d 57eb 883d
000003f0: 69ba 353e bce2 31be 3e41 a6bc 06ee 9fbe

features.2.bias f4 [20]
0.24171805 0.04255198 0.02532155 0.18141192 0.036161635 0.11712669 -0.2059712 0.11055942
-0.38230273 0.06428164 -0.029002486 0.028826483 -0.17857428 -0.16503562 0.28031603 0.065895565
-0.019261098 0.14151779 0.42124933 0.21670058
00000000: f084 773e fc4a 2e3d 246f cf3c 0cc4 393e
00000010: 391e 143d 1ee0 ef3d 1dea 52be fa6c e23d
00000020: 2fbd c3be 18a6 833d 9f96 edbc 8425 ec3c
00000030: 2ddc 36be 19ff 28be 9585 8f3e 41f4 863d
00000040: 73c9 9dbc 0aea 103e fead d73e c2e6 5d3e

features.4.weight f4 [10, 20]
-0.552185 0.108071215 -0.37133732 -0.22170301 -0.22475475 -0.5769927 0.2890074 -0.017428396
-0.17233159 -0.3931076 0.19390507 -0.050954815 0.15792388 -0.18260472 0.29669368 -0.24114728
0.034607604 0.23608616 0.26388502 -0.54234284 0.14856894 -0.006425662 0.23424591 0.50393283
0.10748611 0.31278774 -0.61006284 -0.19760188 -0.036429044 -0.24502727 -0.56847066 -0.67345375
-0.4299009 -0.2322244 0.28686136 0.09323628 -0.017417196 -0.38683102 -0.4275068 0.12348876
0.24688137 -0.43660668 -0.39157954 0.23263457 -0.30611947 -0.4425311 -0.44137383 0.35454714
-0.0133946985 -0.18844897 0.22580187 0.23848723 -0.28931323 -0.23168658 0.14811565 -0.3029808
0.16578352 -0.0077469377 0.18845747 -0.25256786 0.17039499 -0.6326434 -0.34098792 -0.18446659
0.37351716 0.29874495 0.084983915 0.047088448 -0.15986757 0.27965063 0.3096563 -0.054946434
-0.28581786 -0.11829151 0.14839666 -0.3395968 -0.19151124 -0.15396991 -0.30844116 -0.16342945
-0.019434068 0.19875294 -0.16724074 -0.4089397 -0.030864472 -0.05872984 -0.41014972 -0.30689165
0.072900504 0.3045558 -0.71117187 -0.12885097 0.29153532 0.019240735 -0.6972292 -0.021856977
-0.15308289 0.185194 0.23489441 0.2908408 -0.15516414 0.39000508 0.07360415 -0.573598
0.3892271 0.26935798 -0.048244383 -0.06863059 -0.5014252 -0.24426742 -0.048790492 0.14168674
-0.1914503 -0.028792478 0.39954638 -0.102539904 -0.018659187 -0.21078731 0.124873765 0.08869114
-0.7557079 -0.021019226 -0.020711018 -0.0016405772 0.2200786 -0.27360597 -0.08637693 0.27677542
0.34186134 -0.7179661 -0.58128434 0.36837208 0.21966653 0.16133767 -0.024741331 0.0027141906
-0.19326544 -0.099503644 -0.14143679 0.015408871 0.34407467 -0.17826235 0.23577969 -0.34343955
0.21314962 -0.725724 -0.16749041 0.27153838 -0.28026506 -0.23788188 -0.031756323 -0.6779989
0.17700475 0.12590697 -0.30225536 0.27330995 -0.58801925 0.18465641 -0.35421923 -0.21323916
-0.07981113 0.38508633 -0.33996275 -0.1545744 -0.5632439 0.20716201 0.09255326 -0.15424402
0.28782535 0.20197493 0.003914501 0.16585657 -0.22120488 0.118590154 0.18889868 0.2286684
-0.56002 -0.17390229 -0.3729221 -0.04642501 -0.06723925 -0.42153493 -0.0059168637 0.013177798
-0.36455217 -0.020213336 0.20035744 -0.5330503 -0.6671138 0.1804687 -0.31539902 0.08283594
-0.6761434 0.003936741 -0.51738113 0.4083013 0.1353113 0.2818122 -0.09009116 0.08492113
00000000: ff5b 0dbf 7154 dd3d ed1f bebe 1d06 63be
00000010: 1c26 66be cbb5 13bf c7f8 933e ffc5 8ebc
00000020: b177 30be 6645 c9be 0d8f 463e ffb5 50bd
00000030: ccb6 213e bbfc 3abe 3ce8 973e 50ef 76be
00000040: b4c0 0d3d 92c0 713e f01b 873e fbd6 0abf
00000050: 7522 183e 5c8e d2bb 29de 6f3e be01 013f
00000060: ad21 dc3d b725 a03e 142d 1cbf 2658 4abe
00000070: 9f36 15bd 6ee8 7abe 4b87 11bf 7767 2cbf
00000080: f91b dcbe 3ccc 6dbe 7edf 923e aaf2 be3d
00000090: 82ae 8ebc b70e c6be 2ce2 dabe ade7 fc3d
000000a0: 78ce 7c3e e98a dfbe 1d7d c8be c237 6e3e
000000b0: b1bb 9cbe 7093 e2be c0fb e1be 3487 b53e
000000c0: 7075 5bbc c4f8 40be 9b38 673e ff35 743e
000000d0: dd20 94be 3f3f 6dbe a1ab 173e 4d20 9bbe
000000e0: 28c3 293e 06da fdbb fffa 403e 9350 81be
000000f0: 067c 2e3e ebf4 21bf f895 aebe cfe4 3cbe
00000100: a43d bf3e 19f5 983e 0c0c ae3d d1df 403d
00000110: 53b4 23be 5e2e 8f3e 458b 9e3e 830f 61bd
00000120: b856 92be d242 f2bd 4bf5 173e a2df adbe
00000130: 861b 44be 4aaa 1dbe 00ec 9dbe 0d5a 27be
00000140: 3234 9fbc e485 4b3e 2841 2bbe 8b60 d1be
00000150: 7dd7 fcbc b38e 70bd 25ff d1be e720 9dbe
00000160: dc4c 953d bdee 9b3e 5c0f 36bf 82f1 03be
00000170: 1e44 953e bf9e 9d3c 9d7d 32bf 670d b3bc
00000180: c3c1 1cbe 7fa3 3d3e 2988 703e 16e9 943e
00000190: 59e3 1ebe bfae c73e c6bd 963d 52d7 12bf
000001a0: c648 c73e 4ae9 893e e79b 45bd 328e 8cbd
000001b0: 675d 00bf 3d21 7abe 8ad8 47bd 5416 113e
000001c0: 8c0b 44be 34de ebbc 5891 cc3e 7100 d2bd
000001d0: 27db 98bc a1d8 57be d1bd ff3d b3a3 b53d
000001e0: 1376 41bf 8330 acbc 27aa a9bc a308 d7ba
000001f0: 495c 613e 1516 8cbe 63e6 b0bd 82b5 8d3e
00000200: 7308 af3e a0cc 37bf 0dcf 14bf 449b bc3e
00000210: 43f0 603e b435 253e 55ae cabc 90e0 313b
00000220: 60e7 45be 91c8 cbbd ced4 10be 7d75 7c3c
00000230: 8e2a b03e 688a 36be 3b70 713e 4fd7 afbe
00000240: e543 5a3e 0cc9 39bf 9b82 2bbe 1407 8b3e
00000250: e77e 8fbe 4f97 73be eb12 02bd 5691 2dbf
00000260: bc40 353e c2ed 003e 37c1 9abe 48ef 8b3e
00000270: 6e88 16bf 9216 3d3e 395c b5be 5e5b 5abe
00000280: 0574 a3bd 092a c53e 990f aebe c048 1ebe
00000290: c130 10bf 4722 543e 908c bd3d 25f2 1dbe
000002a0: d85d 933e 84d2 4e3e 3745 803b 4ed6 293e
000002b0: 8883 62be 65df f23d a86e 413e 0d28 6a3e
000002c0: 795d 0fbf 7113 32be a5ef bebe 2728 3ebd
000002d0: bbb4 89bd 6dd3 d7be 40e2 c1bb b1e7 573c
000002e0: 95a6 babe 7096 a5bc 802a 4d3e fc75 08bf
000002f0: f8c7 2abf c9cc 383e fb7b a1be e4a5 a93d
00000300: bc17 2dbf c7ff 803b 1773 04bf de0c d13e
00000310: 0c8f 0a3e b049 903e b781 b8bd 21eb ad3d

features.4.bias f4 [10]
0.057996813 -0.036372267 -0.028239217 -0.0981336 0.29956597 0.21093301 0.08045742 0.21707247
-0.2112222 -0.1631263
00000000: 118e 6d3d 16fb 14bd ee55 e7bc 45fa c8bd
00000010: b660 993e d3fe 573e dcc6 a43d 3f48 5e3e
00000020: a24a 58be 950a 27be
